backend/csi_fall_model.tflite (tflite, 30600 bytes, 8 tensors)

arith.constant10 f4 [16, 32]
0	0xbe6de81f	-0.23233078
1	0xbe8e401f	-0.27783296
2	0xbe8ee34f	-0.27907798
3	0x3c42fb86	0.011900788
4	0x3e7e5b53	0.24839525
5	0xbe786199	-0.2425598
6	0xbe69d2f5	-0.2283438
7	0xbb731061	-0.003708862
8	0xbe9551fb	-0.2916411
9	0x3c8a17eb	0.016857108
10	0x3ea4c2ad	0.32179776
11	0x3ea6e89c	0.32599342
12	0xbe9ee30e	-0.31032604
13	0x3e0dec8c	0.13859767
14	0x3ead5e4f	0.33861014
15	0x3e8baf13	0.2728201
16	0xbe287824	-0.1645208
17	0x3e5bc8f4	0.21463376
18	0xbdb74a13	-0.089496754
19	0xbdea6d81	-0.114466675
20	0xbd302c04	-0.043010727
21	0x3eb5c686	0.35503024
22	0xbe3146c4	-0.17312151
23	0x3e898eed	0.26866856
24	0xbe66d2d1	-0.22541358
25	0x3e051670	0.1299684
26	0xbd830d9e	-0.06399082
27	0xbe8047c8	-0.25054765
28	0xbd0204be	-0.031742804
29	0x3e2f127d	0.17096896
30	0x3e949e6d	0.2902712
31	0xbe6090b4	-0.219302
32	0xbdbc9b4c	-0.09209308
33	0x3e0552f8	0.13019931
34	0xbe9511c7	-0.29115126
35	0x3de8ac20	0.11360955
36	0xbe9b86dc	-0.30376327
37	0xbd067d57	-0.032834377
38	0x3e95f7e1	0.2929068
39	0x3e0f05fd	0.13967128
40	0xbdf3f82f	-0.11912572
41	0xbe69e59e	-0.22841498
42	0x3c69a5b2	0.014260696
43	0x3e8ae6a1	0.2712908
44	0x3e0cfb43	0.13767724
45	0x3de54c56	0.111962005
46	0x3e7b1037	0.24517904
47	0xbe8b2b77	-0.271816
48	0xbea5a70b	-0.32354006
49	0xbc9b9bc8	-0.01899518
50	0x3e5a697e	0.21329305
51	0xbd17d467	-0.037067797
52	0xbe9d8e31	-0.30772546
53	0xbe6e86fa	-0.23293677
54	0x3dc484b5	0.09595624
55	0xbe954ef0	-0.29161787
56	0xbd76af39	-0.0602257
57	0x3ea1fee2	0.31639773
58	0x3e8fb312	0.28066307
59	0xbe962e00	-0.2933197
60	0x3e6fb4ef	0.23408864
61	0xbe2294fc	-0.15877146
62	0x3c8628fb	0.016376963
63	0xbe6de238	-0.23230827
64	0xbe9f4b8c	-0.31112325
65	0x3e45d990	0.19321275
66	0x3e860401	0.2617493
67	0xbe2436b4	-0.16036493
68	0xbd6b453d	-0.057439078
69	0xbe4eccca	-0.20195308
70	0xbe9b0dd1	-0.3028398
71	0x3ead2819	0.33819655
72	0x3e5d4c46	0.21611127
73	0xbdd117d5	-0.10209624
74	0xbe247b88	-0.16062748
75	0xbe4b0337	-0.19825445
76	0x3dfd777d	0.12376306
77	0x3db545df	0.088512175
78	0x3e03f8c1	0.12887861
79	0xbe485282	-0.19562724
80	0xbe28924a	-0.16462055
81	0xbd85fd81	-0.06542493
82	0x3d834e23	0.06411388
83	0xbe791acd	-0.2432663
84	0x3c8f2cd0	0.017477423
85	0x3ea58f0a	0.32335693
86	0x3e9e65ec	0.30937135
87	0x3e35ff72	0.17773226
88	0x3e721817	0.23642002
89	0xbe6bcd79	-0.230276
90	0xbe0c3c7a	-0.13694945
91	0xbe853119	-0.2601402
92	0x3d5a47b6	0.053291045
93	0x3d284201	0.04107857
94	0x3dc4dc67	0.09612351
95	0xbe3b90b0	-0.18316913
96	0xbe806496	-0.2507674
97	0xbd8d7b05	-0.0690823
98	0x3e21e251	0.15808989
99	0x3c9dc216	0.019257586
100	0xbe0d2109	-0.13782133
101	0x3e4c9c88	0.19981587
102	0x3e1f0e9c	0.15532917
103	0x3e8c82b8	0.2744348
104	0xbdaba484	-0.08380988
105	0xbe51b41d	-0.20478864
106	0xbc729980	-0.014807105
107	0x3de030c5	0.10946802
108	0xbd5223d0	-0.051303685
109	0x3d33b909	0.043877635
110	0xbe8e3be1	-0.2778006
111	0xbe77e65c	-0.24208969
112	0xbeba86e2	-0.36431032
113	0xbe8543b9	-0.2602823
114	0x3e6b6e59	0.22991313
115	0x3ea6af12	0.32555443
116	0x3d76dd8a	0.06026987
117	0xbcd60c35	-0.026128868
118	0xbe67698f	-0.22598861
119	0x3e8ea981	0.27863696
120	0xbd88519f	-0.06656193
121	0xbd05e889	-0.032692466
122	0x3e917bab	0.28414664
123	0x3e962bdf	0.29330346
124	0xbe80db5b	-0.25167355
125	0x3d2678b9	0.040642474
126	0xbe319089	-0.17340292
127	0x3d7f07f2	0.062263437
128	0x3e72b368	0.2370125
129	0xbebc210a	-0.36743957
130	0x3eb60b05	0.35555282
131	0x3e46df0e	0.19421026
132	0xbe6c5300	-0.23078537
133	0x3e46cab3	0.19413261
134	0x3e2fa327	0.17152081
135	0x3e4bd937	0.1990708
136	0x3dbcf454	0.092262894
137	0x3eaa4a1b	0.33259663
138	0xbe90151e	-0.2814111
139	0x3cb89a90	0.022534639
140	0xbe74bd3c	-0.23900312
141	0xbdac9066	-0.08425979
142	0x3dd61997	0.104540996
143	0x3a6c1798	0.0009006201
144	0x3d2c5a28	0.042078167
145	0xbd6d93c5	-0.058002252
146	0xbd64b633	-0.05583782
147	0x3cbb2d1a	0.022848655
148	0x3db05942	0.086107746
149	0xbe9d6c35	-0.30746618
150	0x3e68a3fe	0.22718808
151	0x3e15b9d7	0.14621674
152	0x3dedb9f4	0.11607733
153	0xbe0959f0	-0.13413215
154	0x3dbc655a	0.09199019
155	0xbeb03310	-0.34413958
156	0xbe7ec072	-0.248781
157	0x3dc100dc	0.09423992
158	0xbe7dc491	-0.24782015
159	0x3e7964ca	0.24354854
160	0xbda3f4fb	-0.08005711
161	0xbe1858c8	-0.14877617
162	0x3e37afc7	0.17938147
163	0x3da9a862	0.082840696
164	0x3e7cd5b8	0.24690902
165	0x3e781e91	0.2423041
166	0x3e17acd3	0.14812021
167	0x3e42721b	0.1898884
168	0xbe19ce56	-0.15020117
169	0xbd800ef1	-0.0625285
170	0x3e3b4c63	0.18290858
171	0xbe7701a7	-0.24121724
172	0x3daef2b0	0.08542383
173	0xbda94b25	-0.08266286
174	0x3eb75819	0.358094
175	0xbe7f5c71	-0.24937607
176	0x3e9bc57e	0.30424112
177	0x3d72c3a6	0.059268616
178	0xbea7a1e9	-0.32740715
179	0xbc1056a1	-0.008809716
180	0x3eaa6321	0.33278754
181	0xbe80a66e	-0.25126976
182	0xbeb2a63f	-0.3489246
183	0x3e82a716	0.255181
184	0xbe384cbb	-0.1799802
185	0x3e6e1961	0.23251869
186	0xbd4a903c	-0.04945396
187	0x3e9921c4	0.29908574
188	0x3eac025e	0.33595556
189	0x3d929913	0.07158103
190	0x3e7ac161	0.2448783
191	0xbe7add8a	-0.24498573
192	0xbe8f1a22	-0.27949625
193	0x3e81ecc4	0.2537595
194	0x3e369c09	0.1783296
195	0xbe6b423e	-0.22974488
196	0x3e4ac10a	0.19800201
197	0x3c0ba55e	0.008523313
198	0xbdcd6061	-0.100281484
199	0xbe958d68	-0.29209447
200	0x3e586211	0.2113116
201	0x3e605035	0.21905597
202	0xbea46c32	-0.32113796
203	0x3ead27e4	0.33819497
204	0x3ba2db5c	0.0049699973
205	0xbe16a98b	-0.14713113
206	0x3dcfaa87	0.101399474
207	0x3e3cc782	0.18435481
208	0xbeaa3b92	-0.33248574
209	0x3e1c1fa9	0.15246452
210	0x3eaad193	0.33363017
211	0xbe7d8d07	-0.24760829
212	0xbe8844ad	-0.26614895
213	0x3e8caa19	0.27473524
214	0xbdc61dad	-0.09673629
215	0xbdcf3647	-0.101177745
216	0xbdfb207e	-0.12262057
217	0x3e721cb1	0.23643757
218	0x3e04dafd	0.12974162
219	0xbd267afb	-0.040644627
220	0x3dda5f27	0.1066268
221	0x3e8dcbfb	0.27694687
222	0x3de86223	0.11346843
223	0x3e1bfbce	0.15232775
224	0xbe6e8fe5	-0.23297079
225	0xbdb23aec	-0.08702645
226	0x3e98625d	0.29762545
227	0x3e67666d	0.22597666
228	0xbd46baf6	-0.048518144
229	0x3d66ab47	0.056315687
230	0x3dfa87c6	0.12232928
231	0x3e809c02	0.25119025
232	0x3ea1f451	0.3163171
233	0xbe1716bd	-0.14754768
234	0xbe087e7f	-0.13329504
235	0xbe21d79c	-0.15804905
236	0xbeb9fb72	-0.3632465
237	0x3e18d880	0.14926338
238	0x3e067687	0.13131152
239	0xbb721f1a	-0.0036944808
240	0x3eae395c	0.34028137
241	0x3e0d8f32	0.13824156
242	0x3e116819	0.14199866
243	0xbeb0d2f4	-0.34535944
244	0x3e983f3f	0.29735753
245	0xbea7c50d	-0.32767525
246	0x3e66a189	0.22522558
247	0x3e822279	0.25416926
248	0x3e3f1903	0.18661885
249	0x3ea5d2d8	0.32387424
250	0xbe5951ef	-0.21222661
251	0x3eab5305	0.33461776
252	0x3e29f552	0.16597489
253	0xbe3aa5f9	-0.18227376
254	0xbdea5075	-0.11441127
255	0x3e977850	0.2958398

arith.constant11 f4 [1, 16]
0	0x3e6ee13b	0.23328106
1	0xbe2961f3	-0.16541271
2	0xbf001de8	-0.50045633
3	0xbe285831	-0.16439892
4	0x3ed01570	0.40641356
5	0x3ed819ae	0.42207092
6	0x3e800857	0.25006363
7	0x3d792dda	0.060834743
8	0xbeb2495a	-0.34821588
9	0xbed89fdd	-0.42309466
10	0xbed70f41	-0.42003825
11	0x3d6bd916	0.057580076
12	0xbe0a88db	-0.13528769
13	0x3ec960a4	0.39331543
14	0x3eb12a51	0.34602597
15	0x3de761ae	0.11297928

arith.constant12 f4 [16]
0	0x3c0a99ca	0.008459518
1	0xbcb87bf2	-0.02252004
2	0xbc3cd435	-0.0115252035
3	0xbc54092e	-0.012941642
4	0x3cb10911	0.021610769
5	0x3c837bfa	0.016050328
6	0x3cab2be4	0.020894952
7	0x3cb5b5f2	0.022181485
8	0xbb381297	-0.0028087252
9	0xbc4d30db	-0.012523855
10	0xbc15180d	-0.009099972
11	0x3c699215	0.01425602
12	0xbbfa9290	-0.007646866
13	0x3c9abd4a	0.018889088
14	0x3c8dd02d	0.01731118
15	0x3bf7fbb4	0.007567847

arith.constant13 f4 [32]
0	0x3b521076	0.0032053269
1	0xbb1a811f	-0.0023575497
2	0x3c88a989	0.016682403
3	0x00000000	0.0
4	0xbc1b172e	-0.009465976
5	0x00000000	0.0
6	0x00000000	0.0
7	0x3c8d9a25	0.017285416
8	0x00000000	0.0
9	0xbc3d8c4f	-0.011569097
10	0x00000000	0.0
11	0x00000000	0.0
12	0x3c46e8df	0.012140482
13	0x00000000	0.0
14	0xbc810bea	-0.015752751
15	0x3cb24234	0.021760084
16	0x3c874ae8	0.01651521
17	0xbb0c4dee	-0.0021408754
18	0x00000000	0.0
19	0xbafc1568	-0.0019232454
20	0xbc234c3a	-0.009966904
21	0x00000000	0.0
22	0x3c55b421	0.013043434
23	0xbc045ea4	-0.008079205
24	0xbc0f782f	-0.008756681
25	0x3c931d91	0.017958434
26	0x00000000	0.0
27	0x3c04093d	0.008058843
28	0x3c57d424	0.013173137
29	0xbbc2d78c	-0.0059461053
30	0xbbc25480	-0.0059304833
31	0x3b0666ca	0.0020508044

tfl.pseudo_qconst i1 [32, 1, 3, 30]
0	0xc6	-58
1	0x8f	-113
2	0x5b	91
3	0x9e	-98
4	0xf6	-10
5	0xc1	-63
6	0x1e	30
7	0x6e	110
8	0x04	4
9	0x6e	110
10	0x23	35
11	0x2e	46
12	0x3d	61
13	0xf7	-9
14	0x68	104
15	0x93	-109
16	0x38	56
17	0x13	19
18	0x6f	111
19	0xfb	-5
20	0xa9	-87
21	0x51	81
22	0xa5	-91
23	0x57	87
24	0xdb	-37
25	0x3a	58
26	0xdf	-33
27	0x2e	46
28	0x00	0
29	0x68	104
30	0x79	121
31	0x03	3
32	0x51	81
33	0x00	0
34	0xe7	-25
35	0x02	2
36	0x13	19
37	0xad	-83
38	0x7f	127
39	0x86	-122
40	0x35	53
41	0xd8	-40
42	0x99	-103
43	0x0e	14
44	0xd1	-47
45	0x40	64
46	0xb3	-77
47	0xd0	-48
48	0x11	17
49	0xcb	-53
50	0x10	16
51	0x43	67
52	0x79	121
53	0xc0	-64
54	0xae	-82
55	0xc0	-64
56	0x91	-111
57	0x22	34
58	0xb1	-79
59	0x05	5
60	0x5f	95
61	0xe2	-30
62	0xbc	-68
63	0x4e	78
64	0x4a	74
65	0x01	1
66	0xa7	-89
67	0x8f	-113
68	0x68	104
69	0x10	16
70	0x65	101
71	0x58	88
72	0xf2	-14
73	0x59	89
74	0x60	96
75	0x1f	31
76	0xf3	-13
77	0x6e	110
78	0xe9	-23
79	0xaa	-86
80	0xc6	-58
81	0x58	88
82	0x25	37
83	0xa8	-88
84	0x64	100
85	0x28	40
86	0x98	-104
87	0x2d	45
88	0x13	19
89	0xc0	-64
90	0x55	85
91	0xc5	-59
92	0xff	-1
93	0xb7	-73
94	0x9a	-102
95	0xb2	-78
96	0x44	68
97	0x23	35
98	0x4b	75
99	0x0c	12
100	0x0d	13
101	0xb3	-77
102	0x6a	106
103	0xe2	-30
104	0xec	-20
105	0xeb	-21
106	0x52	82
107	0xf8	-8
108	0x7f	127
109	0x1c	28
110	0x02	2
111	0x76	118
112	0x24	36
113	0xd9	-39
114	0xe8	-24
115	0xb1	-79
116	0x61	97
117	0x7d	125
118	0x1e	30
119	0xd0	-48
120	0xc2	-62
121	0xdb	-37
122	0x70	112
123	0x6a	106
124	0xc6	-58
125	0x7f	127
126	0xc6	-58
127	0x7a	122
128	0x81	-127
129	0x75	117
130	0x06	6
131	0x54	84
132	0xe0	-32
133	0x92	-110
134	0x61	97
135	0x93	-109
136	0xdb	-37
137	0x76	118
138	0x4b	75
139	0xfc	-4
140	0x0b	11
141	0xb6	-74
142	0xc3	-61
143	0xd4	-44
144	0xcf	-49
145	0x02	2
146	0x7e	126
147	0x5c	92
148	0x5f	95
149	0xa8	-88
150	0xf6	-10
151	0xb3	-77
152	0xfe	-2
153	0xa8	-88
154	0x49	73
155	0x09	9
156	0x86	-122
157	0xa2	-94
158	0x4f	79
159	0xf4	-12
160	0x3c	60
161	0xe8	-24
162	0xe3	-29
163	0x0b	11
164	0xdc	-36
165	0x44	68
166	0x3a	58
167	0x7b	123
168	0xc6	-58
169	0xeb	-21
170	0x53	83
171	0x3b	59
172	0xa4	-92
173	0x72	114
174	0x8c	-116
175	0xf7	-9
176	0x9c	-100
177	0x5f	95
178	0x0c	12
179	0xad	-83
180	0x53	83
181	0xa3	-93
182	0x46	70
183	0x62	98
184	0x26	38
185	0x92	-110
186	0x10	16
187	0x0b	11
188	0x93	-109
189	0xaa	-86
190	0x48	72
191	0x2b	43
192	0xc8	-56
193	0x2b	43
194	0x31	49
195	0x3b	59
196	0x74	116
197	0x64	100
198	0xb4	-76
199	0xd1	-47
200	0x32	50
201	0xe8	-24
202	0xeb	-21
203	0x5b	91
204	0xb3	-77
205	0x2f	47
206	0x0f	15
207	0x7f	127
208	0xc3	-61
209	0xb2	-78
210	0x96	-106
211	0x5d	93
212	0x25	37
213	0x1b	27
214	0x36	54
215	0xd4	-44
216	0x59	89
217	0x41	65
218	0xb3	-77
219	0xc8	-56
220	0xfd	-3
221	0x0e	14
222	0x53	83
223	0x11	17
224	0x2a	42
225	0x1e	30
226	0xaf	-81
227	0x13	19
228	0x53	83
229	0x18	24
230	0x54	84
231	0x49	73
232	0x69	105
233	0x26	38
234	0xdc	-36
235	0x13	19
236	0xf0	-16
237	0x05	5
238	0x47	71
239	0x7e	126
240	0xf8	-8
241	0xaa	-86
242	0x4f	79
243	0xe6	-26
244	0x0f	15
245	0xe3	-29
246	0x3e	62
247	0xa8	-88
248	0x5b	91
249	0xb6	-74
250	0x7f	127
251	0xb3	-77
252	0x37	55
253	0xeb	-21
254	0xe3	-29
255	0x89	-119

arith.constant23 f4 [128]
0	0x3a8573ff	0.0010181664
1	0x3c89b227	0.016808582
2	0x3ca9027a	0.020631064
3	0x3bf82cad	0.007573685
4	0x3c37ef00	0.011226416
5	0x3ca124e0	0.019670904
6	0x3b0091d6	0.0019618175
7	0x3ca37c1d	0.019956643
8	0x3a30572c	0.0006726857
9	0x3c82a590	0.015948087
10	0xbc16a7dd	-0.009195295
11	0x3cae3846	0.021267068
12	0x3c8bedc8	0.017081156
13	0xbc03a7cf	-0.008035614
14	0x3c81645f	0.015794931
15	0x3c5e3a96	0.013563773
16	0x3c1f1e96	0.009711882
17	0x3ca3ba77	0.019986374
18	0x3c55098c	0.013002764
19	0xbc192660	-0.009347528
20	0xbc907455	-0.017633596
21	0xbc06bb9f	-0.008223443
22	0x3c9747e8	0.018466905
23	0xbc0cffb7	-0.008605889
24	0xbc2c7e9f	-0.010528236
25	0x3b6f5f9c	0.0036525493
26	0xbc978ed3	-0.018500721
27	0xbb910f7f	-0.004426896
28	0x3c7e898d	0.015535724
29	0x3ad0001e	0.0015869176
30	0x3c34334e	0.01099856
31	0x3ab522a3	0.0013819527
32	0x3f801713	1.0007042
33	0x3f818d26	1.01212
34	0x3f82b967	1.021283
35	0x3f811840	1.0085526
36	0x3f80d2b5	1.0064303
37	0x3f828568	1.0196962
38	0x3f810cfa	1.0082085
39	0x3f8231c8	1.0171442
40	0x3f8025ba	1.0011513
41	0x3f8244c6	1.0177238
42	0x3f7d7147	0.9900097
43	0x3f82d834	1.022223
44	0x3f81c0cd	1.0136963
45	0x3f7dc23a	0.9912449
46	0x3f82438a	1.0176861
47	0x3f8184c5	1.0118643
48	0x3f818eb5	1.0121676
49	0x3f827b94	1.0193963
50	0x3f81d5af	1.0143336
51	0x3f7dd951	0.99159724
52	0x3f7b6451	0.98199946
53	0x3f7f72d9	0.9978462
54	0x3f820c70	1.0160046
55	0x3f7d8dfa	0.99044764
56	0x3f7e4a2a	0.99331915
57	0x3f7dd724	0.99156404
58	0x3f7b10aa	0.980723
59	0x3f7edd9e	0.9955691
60	0x3f8152de	1.0103414
61	0x3f7f4946	0.9972118
62	0x3f814685	1.0099646
63	0x3f802537	1.0011357
64	0xbb3a3e8a	-0.0028418624
65	0xbc7cdc2d	-0.015433353
66	0x3ca19904	0.019726284
67	0x3beb73b7	0.007185425
68	0xbc35ef53	-0.011104423
69	0x3c90ec65	0.017690847
70	0x3c9d5d80	0.019209623
71	0xbc9825d9	-0.018572735
72	0x3b1df193	0.0024100288
73	0x3c878fe2	0.0165481
74	0x3baee45b	0.0053372807
75	0x3ca572e0	0.020196378
76	0xbc855b92	-0.016279016
77	0xbc0d1a4d	-0.008612228
78	0x3c709595	0.014684101
79	0xbc553ae8	-0.013014533
80	0x3c31c22e	0.010849519
81	0x3c5c9959	0.013464295
82	0xbc3e8bfb	-0.011630054
83	0x3c5a21bd	0.013313708
84	0x3c88712c	0.016655527
85	0x3b0b8509	0.0021289012
86	0xbc802fdc	-0.015647821
87	0xbc03d85c	-0.00804719
88	0x39ac3bcf	0.00032850957
89	0x3bed04bc	0.0072332304
90	0x3bc2fa63	0.0059502586
91	0x3b8b91da	0.00425933
92	0x3c48bfea	0.012252787
93	0x3c667042	0.01406485
94	0xbc61a4c0	-0.01377219
95	0x3b5c9932	0.0033660647
96	0x3a2eb1d4	0.00066640717
97	0x3c83c915	0.016087094
98	0x3ca848d4	0.02054254
99	0x3bf06961	0.007336781
100	0x3c2a8f6c	0.010410171
101	0x3c9ea4e9	0.019365745
102	0x3b0151f1	0.0019732679
103	0x3ca6c862	0.020359222
104	0x3a5934d2	0.0008285764
105	0x3c8290fd	0.015938276
106	0xbc1c3311	-0.00953366
107	0x3cade29b	0.021226218
108	0x3c8bb560	0.01705426
109	0xbc074dff	-0.008258342
110	0x3c832200	0.016007423
111	0x3c622e97	0.013805053
112	0x3c23adf4	0.009990204
113	0x3ca6613d	0.020310039
114	0x3c5b86e7	0.013398862
115	0xbc154b9b	-0.009112264
116	0xbc8f0b6d	-0.017461503
117	0xbc06dc7f	-0.008231281
118	0x3c98b548	0.01864113
119	0xbc0ca918	-0.008585237
120	0xbc1cdd26	-0.00957421
121	0x3b820ffe	0.0039691916
122	0xbc96ca67	-0.01840706
123	0xbb962297	-0.00458176
124	0x3c7b213c	0.015327748
125	0x3ab1e8ea	0.0013573442
126	0x3c326f9d	0.0108908685
127	0x3a60d93e	0.00085772935

tfl.pseudo_qconst1 i1 [128, 32]
0	0xa0	-96
1	0xb8	-72
2	0x7f	127
3	0x5b	91
4	0xc9	-55
5	0x88	-120
6	0x07	7
7	0xe9	-23
8	0xa0	-96
9	0x0d	13
10	0x00	0
11	0x09	9
12	0xed	-19
13	0xcd	-51
14	0x7c	124
15	0xc0	-64
16	0x42	66
17	0x49	73
18	0x5e	94
19	0x23	35
20	0x2d	45
21	0xf1	-15
22	0x7a	122
23	0x70	112
24	0x12	18
25	0x09	9
26	0x34	52
27	0x8e	-114
28	0xb8	-72
29	0x6b	107
30	0xc8	-56
31	0xba	-70
32	0x8e	-114
33	0x51	81
34	0x77	119
35	0x7d	125
36	0xd8	-40
37	0x2c	44
38	0x0b	11
39	0x77	119
40	0x21	33
41	0x82	-126
42	0x2b	43
43	0x04	4
44	0xc8	-56
45	0x8e	-114
46	0x70	112
47	0x55	85
48	0x24	36
49	0x15	21
50	0xba	-70
51	0x3f	63
52	0xd8	-40
53	0x00	0
54	0x9a	-102
55	0x22	34
56	0xf8	-8
57	0x9c	-100
58	0x7f	127
59	0xad	-83
60	0x93	-109
61	0x56	86
62	0xfb	-5
63	0x34	52
64	0x7f	127
65	0x2d	45
66	0x32	50
67	0x0b	11
68	0x99	-103
69	0x61	97
70	0xf9	-7
71	0x35	53
72	0x04	4
73	0x29	41
74	0xb7	-73
75	0xac	-84
76	0x04	4
77	0x14	20
78	0x37	55
79	0xfb	-5
80	0x4e	78
81	0x53	83
82	0x3c	60
83	0x32	50
84	0xe4	-28
85	0xf3	-13
86	0xdd	-35
87	0xc1	-63
88	0xd5	-43
89	0xb4	-76
90	0x27	39
91	0xfd	-3
92	0xcf	-49
93	0x29	41
94	0x2d	45
95	0x66	102
96	0x31	49
97	0x70	112
98	0x0f	15
99	0xc3	-61
100	0xc1	-63
101	0xda	-38
102	0xcb	-53
103	0x8f	-113
104	0xe6	-26
105	0x37	55
106	0x5a	90
107	0x7a	122
108	0x7f	127
109	0xe2	-30
110	0xbc	-68
111	0xe1	-31
112	0xc2	-62
113	0xff	-1
114	0x56	86
115	0xb2	-78
116	0xd2	-46
117	0xf5	-11
118	0xb9	-71
119	0x94	-108
120	0xa3	-93
121	0x20	32
122	0xda	-38
123	0x9d	-99
124	0x41	65
125	0xe9	-23
126	0x0b	11
127	0x2e	46
128	0x15	21
129	0x9f	-97
130	0x11	17
131	0x74	116
132	0x07	7
133	0x32	50
134	0xd1	-47
135	0x72	114
136	0x58	88
137	0xab	-85
138	0xdc	-36
139	0x63	99
140	0x62	98
141	0x3e	62
142	0x60	96
143	0x7f	127
144	0x4d	77
145	0x31	49
146	0x1a	26
147	0xbc	-68
148	0x5e	94
149	0xea	-22
150	0x1c	28
151	0xf1	-15
152	0x41	65
153	0xce	-50
154	0xe5	-27
155	0xba	-70
156	0xb9	-71
157	0x15	21
158	0x5b	91
159	0x55	85
160	0xb6	-74
161	0x63	99
162	0xde	-34
163	0x6e	110
164	0x27	39
165	0xd2	-46
166	0x7f	127
167	0xd4	-44
168	0x1d	29
169	0x95	-107
170	0x4a	74
171	0x24	36
172	0xdf	-33
173	0x72	114
174	0x21	33
175	0xf8	-8
176	0xec	-20
177	0xc7	-57
178	0xc1	-63
179	0xa6	-90
180	0xa8	-88
181	0xd1	-47
182	0x12	18
183	0x07	7
184	0xeb	-21
185	0xfc	-4
186	0x72	114
187	0x6c	108
188	0xe5	-27
189	0xa5	-91
190	0x44	68
191	0x16	22
192	0x47	71
193	0x74	116
194	0x53	83
195	0x36	54
196	0x91	-111
197	0x5a	90
198	0x43	67
199	0x35	53
200	0xe9	-23
201	0x30	48
202	0x25	37
203	0x81	-127
204	0x54	84
205	0xc2	-62
206	0x3c	60
207	0x6c	108
208	0xae	-82
209	0x5b	91
210	0xd3	-45
211	0x1a	26
212	0x32	50
213	0x30	48
214	0xa7	-89
215	0x16	22
216	0xc4	-60
217	0x35	53
218	0x2c	44
219	0xfe	-2
220	0x24	36
221	0xbb	-69
222	0xd2	-46
223	0xde	-34
224	0x9b	-101
225	0x9b	-101
226	0x7f	127
227	0x11	17
228	0x7a	122
229	0xfb	-5
230	0x34	52
231	0x6b	107
232	0xd0	-48
233	0x24	36
234	0x76	118
235	0x30	48
236	0x68	104
237	0x20	32
238	0x29	41
239	0x6a	106
240	0xfc	-4
241	0x76	118
242	0x1f	31
243	0xbe	-66
244	0x9d	-99
245	0x59	89
246	0x52	82
247	0x41	65
248	0x96	-106
249	0xde	-34
250	0x35	53
251	0xff	-1
252	0x27	39
253	0x3a	58
254	0x27	39
255	0x3d	61

tfl.pseudo_qconst2 i1 [128, 32]
0	0xb9	-71
1	0xe6	-26
2	0xd2	-46
3	0xd1	-47
4	0xf5	-11
5	0x87	-121
6	0x1e	30
7	0x0f	15
8	0x5a	90
9	0x8b	-117
10	0x71	113
11	0xea	-22
12	0xbd	-67
13	0x81	-127
14	0x2e	46
15	0x96	-106
16	0x1d	29
17	0x29	41
18	0x2a	42
19	0xf8	-8
20	0x20	32
21	0x9e	-98
22	0xed	-19
23	0x0e	14
24	0x01	1
25	0xf0	-16
26	0xd4	-44
27	0xb2	-78
28	0xe9	-23
29	0xc6	-58
30	0xc3	-61
31	0x1e	30
32	0xce	-50
33	0x14	20
34	0xec	-20
35	0xd5	-43
36	0x18	24
37	0x42	66
38	0x4a	74
39	0x23	35
40	0xeb	-21
41	0xde	-34
42	0x0f	15
43	0xd8	-40
44	0xf9	-7
45	0x55	85
46	0xa5	-91
47	0xe7	-25
48	0xda	-38
49	0x1b	27
50	0x0c	12
51	0x30	48
52	0x50	80
53	0x6d	109
54	0xc1	-63
55	0x2e	46
56	0xfa	-6
57	0xfd	-3
58	0x7f	127
59	0x34	52
60	0x18	24
61	0x79	121
62	0x66	102
63	0x0e	14
64	0x0b	11
65	0x89	-119
66	0xd7	-41
67	0xd2	-46
68	0x1e	30
69	0xd7	-41
70	0xe8	-24
71	0xff	-1
72	0x40	64
73	0x24	36
74	0xfa	-6
75	0x02	2
76	0xdb	-37
77	0xb9	-71
78	0x32	50
79	0xdc	-36
80	0xf6	-10
81	0x00	0
82	0xfd	-3
83	0x38	56
84	0xe0	-32
85	0x0c	12
86	0x08	8
87	0x7f	127
88	0xc6	-58
89	0xe6	-26
90	0x38	56
91	0x21	33
92	0x3b	59
93	0xe6	-26
94	0xd0	-48
95	0x34	52
96	0xdc	-36
97	0x08	8
98	0x21	33
99	0x06	6
100	0x04	4
101	0x20	32
102	0x7f	127
103	0xd9	-39
104	0x61	97
105	0xf5	-11
106	0xde	-34
107	0xc5	-59
108	0x28	40
109	0x0e	14
110	0x35	53
111	0x32	50
112	0xdd	-35
113	0x25	37
114	0xb3	-77
115	0x31	49
116	0x2c	44
117	0xff	-1
118	0x54	84
119	0x34	52
120	0x16	22
121	0xec	-20
122	0xdb	-37
123	0xf7	-9
124	0x16	22
125	0x28	40
126	0x57	87
127	0x09	9
128	0xdc	-36
129	0x11	17
130	0xe3	-29
131	0xe6	-26
132	0x1d	29
133	0xc5	-59
134	0xe5	-27
135	0xf1	-15
136	0x00	0
137	0x37	55
138	0x1f	31
139	0xe2	-30
140	0x26	38
141	0x12	18
142	0xef	-17
143	0x07	7
144	0xc1	-63
145	0x88	-120
146	0x90	-112
147	0xc4	-60
148	0xde	-34
149	0x05	5
150	0x81	-127
151	0xf6	-10
152	0x50	80
153	0xe2	-30
154	0x19	25
155	0x7a	122
156	0x23	35
157	0x0f	15
158	0x02	2
159	0x51	81
160	0x3a	58
161	0x18	24
162	0xff	-1
163	0x16	22
164	0xf2	-14
165	0x14	20
166	0x0c	12
167	0x14	20
168	0x2e	46
169	0xff	-1
170	0x5b	91
171	0xf5	-11
172	0xbc	-68
173	0x81	-127
174	0x4d	77
175	0xb2	-78
176	0x0f	15
177	0x25	37
178	0xe1	-31
179	0x0b	11
180	0x01	1
181	0x0c	12
182	0xec	-20
183	0x1f	31
184	0xeb	-21
185	0x09	9
186	0x0c	12
187	0x1f	31
188	0xe1	-31
189	0x94	-108
190	0xef	-17
191	0xfa	-6
192	0xad	-83
193	0x5c	92
194	0x6a	106
195	0xfd	-3
196	0x10	16
197	0xed	-19
198	0xe1	-31
199	0x16	22
200	0xe8	-24
201	0xa9	-87
202	0x5a	90
203	0x4f	79
204	0x35	53
205	0x2f	47
206	0x32	50
207	0x19	25
208	0x0a	10
209	0xea	-22
210	0x81	-127
211	0x81	-127
212	0x92	-110
213	0xef	-17
214	0xc5	-59
215	0x6f	111
216	0xb1	-79
217	0x50	80
218	0x83	-125
219	0x83	-125
220	0x79	121
221	0x4b	75
222	0x09	9
223	0x6e	110
224	0xee	-18
225	0xb2	-78
226	0x37	55
227	0x24	36
228	0x3a	58
229	0x81	-127
230	0x0f	15
231	0x6e	110
232	0xb8	-72
233	0x6e	110
234	0x5c	92
235	0x37	55
236	0x97	-105
237	0x21	33
238	0x1e	30
239	0xa3	-93
240	0xc5	-59
241	0x64	100
242	0xcd	-51
243	0x47	71
244	0xf3	-13
245	0x2e	46
246	0x12	18
247	0xff	-1
248	0x6f	111
249	0x48	72
250	0x12	18
251	0xec	-20
252	0x41	65
253	0x27	39
254	0x0b	11
255	0x92	-110
